assets/model.tflite (tflite, 973312 bytes, 12 tensors)

sequential/dense/BiasAdd/ReadVariableOp f4 [256]
000000 0b 2f e0 bd a4 5b 33 3e ed f7 09 3d b5 a3 8a bd
       -0.10946473 0.17515427 0.033683706 -0.06769506
000010 09 68 88 3b c9 30 92 3d 1d d0 0c bc cf 6d 1c 3e
       0.0041627926 0.07138211 -0.00859454 0.15276264
000020 4c b4 0c 3e 2a 30 16 3e b9 e4 74 be c7 d5 c3 3d
       0.13740653 0.1466681 -0.23915376 0.09562259
000030 40 2a af bd f9 72 a6 3d 70 da 7c 3e a4 7d b4 bd
       -0.085529804 0.08127398 0.24692702 -0.088130265
000040 b9 23 5f bc 00 8f a7 bc 5f cf 90 3d c6 a2 b9 3c
       -0.013619357 -0.02045393 0.07070803 0.022660624
000050 c9 bd a4 3d 85 34 d9 bd bc 5e 18 3d 52 c6 06 be
       0.08044011 -0.106057204 0.03719972 -0.1316159
000060 f5 db 86 3e 30 63 c3 3e 6b e2 50 3d 46 2c a0 3e
       0.2633969 0.38161612 0.05099718 0.31283778
000070 04 2f e0 bc 5b 5a 0f be 0b 29 39 bd d0 db 5d 3e
       -0.027366169 -0.13999312 -0.045205157 0.21665883
000080 04 c5 ac bc c7 e2 80 bd e2 5a f5 3c 91 94 70 3e
       -0.021090038 -0.06293254 0.029950563 0.23494174
000090 61 1d b4 3e 8a ad 34 bd 2b c2 c4 bc bd 17 be 3c
       0.35178664 -0.044110812 -0.024018368 0.023204679
0000a0 43 06 18 3e 6c 6a a8 3d b1 1a 31 bd 48 84 e3 bb
       0.14846139 0.08223423 -0.043238346 -0.0069432594
0000b0 01 5f 44 3e 69 c2 b2 3e 4e fa bc bd db 94 4d 3e
       0.19176866 0.34913948 -0.09227429 0.20076315
0000c0 99 7d 87 3e 22 de 86 3e b2 9d 03 be 00 77 06 bd
       0.2646301 0.2634135 -0.12853125 -0.03282833
0000d0 5b 89 b7 3d a1 cb db 3d 6d b6 5a 3e f0 67 6f 3e
       0.08961745 0.107321985 0.21358652 0.23379493
0000e0 aa 74 80 3e 68 aa 46 bd 22 03 6a 3e 5e a6 db 3e
       0.25089008 -0.048502356 0.22852758 0.42900366
0000f0 3e c3 79 3e a7 1c 42 3e 93 59 ec 3d 7f 77 a4 3e
       0.24390885 0.18956243 0.115405224 0.32122418
000100 fa 4d 05 bd d2 10 0c 3e 82 0c a6 3e 11 1c 89 3e
       -0.032545067 0.13678291 0.32431418 0.26779225
000110 76 ff ac bd c8 c4 33 bc 50 03 e7 3c 29 5f c9 3d
       -0.08447163 -0.010972209 0.028199822 0.098326035
000120 9d 8b 3c bb 0c 0e 3e 3d 7f d5 41 3e 77 85 42 be
       -0.002876974 0.046400115 0.18929099 -0.18996225
000130 62 50 32 bd d0 4e 87 3e 0d 63 b9 bd 97 2c 42 3e
       -0.04353369 0.26427317 -0.090520956 0.18962322
000140 be e5 3f bd 9f b0 a4 3e 75 94 ac bd a2 90 f0 bc
       -0.04684996 0.32166 -0.084267534 -0.029365841
000150 af 16 8a 3e 5f 34 27 3d a1 08 bb 3c 3d 4d a6 3d
       0.2697043 0.04082143 0.022831263 0.08120201
000160 9a 70 23 bc 54 c9 79 3e b6 f7 31 3c 10 6e 5f 3e
       -0.009975577 0.24393207 0.010862282 0.2181933
000170 ad 09 4c bd cf 62 7b bc 00 9b 97 bd cd 19 f3 3e
       -0.049813915 -0.015343382 -0.07402611 0.47480622
000180 98 d1 87 3c 7a 31 20 3e f0 12 40 be 91 70 7c 3e
       0.016579434 0.15643874 -0.18757224 0.24652316
000190 91 e6 58 be d2 fd 7e bd 65 89 31 3e c1 a4 c0 3d
       -0.21181704 -0.06225378 0.17337568 0.09406424
0001a0 b2 2f 95 3e 8e c4 d6 3e 96 21 a4 3e 14 8e b3 3d
       0.2913795 0.41946834 0.32056874 0.087673336
0001b0 6f 4f b8 3d ed 7a 61 3e 26 1c 1c be e7 73 17 3e
       0.08999526 0.22019549 -0.15245113 0.14790307
0001c0 ee d1 30 be e8 35 c8 bd 2c 51 84 3e 2b 34 b8 3e
       -0.17267582 -0.09775907 0.2584318 0.359773
0001d0 53 b0 b3 3c fa 53 df 3c 09 f6 eb 3d 55 cf 8f 3a
       0.021934664 0.027261723 0.11521537 0.0010971824
0001e0 80 90 6c 3d 12 1d 20 be 74 d7 d7 3d e5 36 73 3e
       0.057754993 -0.1563609 0.10539141 0.2375141
0001f0 b1 cd b5 3e e2 4a c2 bd 65 1c d2 bc de 0f 96 3c
       0.35508493 -0.09486939 -0.025648305 0.018318113
000200 52 d8 c3 bd d9 80 ad bd 3e 2b ab bd d8 2d a2 bc
       -0.09562744 -0.08471841 -0.08357857 -0.01979725
000210 ca e3 42 bc 57 78 96 3e 45 89 4e 3e 84 5b 8f 3d
       -0.011895129 0.29388687 0.20169552 0.06999877
000220 2d d0 02 be 2c 9a 2b 3e 0b 0b e7 bd be bf 98 3d
       -0.12774725 0.1675803 -0.11281403 0.07458447
000230 67 27 df bd 75 d0 8b 3b 64 a8 40 3d 41 a0 e7 3d
       -0.10896187 0.0042667934 0.04703559 0.11309863
000240 4d e7 df 3d 59 b6 99 3e 61 db be bd e5 f6 71 3e
       0.10932789 0.30021933 -0.09319187 0.23629339
000250 88 57 00 3e 92 de 4a bd da 89 6c 3e 56 f3 24 be
       0.1253339 -0.049528666 0.23099461 -0.1610845
000260 f1 41 99 3d b4 39 3b 3d 59 38 ed 3e bb 28 25 3e
       0.074832805 0.045709327 0.46332052 0.16128819
000270 d1 c9 14 3e 14 45 dc 3d 95 09 4b 3e c6 58 27 be
       0.14530112 0.10755363 0.19827874 -0.16342458
000280 24 2e ad 3d fe 7b 28 3e ec 72 d0 3d 8a 7c 1e 3e
       0.08456066 0.1645355 0.101781696 0.15477195
000290 c6 3f 1c 3e 05 7e a9 3d 39 9c 92 3e eb 87 10 3e
       0.15258703 0.082759894 0.28634813 0.14114349
0002a0 87 12 e5 3d 1d 19 f8 3d 23 5b 2f 3e 12 88 72 3d
       0.111851744 0.12114165 0.1712461 0.059211798
0002b0 ae 6c 19 3e e3 c4 5f 3e 54 e9 d7 bd 37 66 84 bd
       0.14982864 0.2185245 -0.10542551 -0.064648084
0002c0 09 6d 27 3e 8e b1 8a 3e e0 b4 42 3e 0a 5e 99 3e
       0.16350187 0.27088588 0.19014311 0.2995456
0002d0 59 d1 2a be 08 bd 81 3d 1c 85 85 3e 8a c0 ad 3c
       -0.16681422 0.06334883 0.26078117 0.021209974
0002e0 7a b1 c7 3d da bb 78 3e 38 a0 38 bd 5b 89 e5 3c
       0.09750648 0.2429041 -0.04507467 0.028019598
0002f0 bc 35 ca bd 3e 6e 00 3e 1b be 5e 3e 72 b8 42 bd
       -0.0987353 0.12542054 0.21752207 -0.047539182
000300 da f8 49 be 98 c0 05 be 80 23 78 3e e1 e0 d9 3b
       -0.19723836 -0.1306175 0.24232292 0.006649122
000310 44 f2 50 3d 09 54 64 3e 0a f6 53 3d 36 8e f2 bd
       0.051012293 0.22297682 0.051748313 -0.11843531
000320 fd ab 05 3d 25 99 24 be cd 7f b5 3d 11 df 5b bd
       0.032634724 -0.16074045 0.08862267 -0.05367953
000330 8a 40 46 be 2b 3d f2 3d 95 00 1f 3d a0 06 31 3e
       -0.19360557 0.11828073 0.038818914 0.17287683
000340 48 ee a5 3d 20 17 65 be 2f 47 84 3c 1f 50 93 3d
       0.08102089 -0.22372103 0.016147224 0.07193016
000350 84 3b e4 bd 45 84 78 bd dc 21 13 bc a0 c9 a4 bd
       -0.11144164 -0.060673017 -0.008980241 -0.080462694
000360 22 8a fb 3d d2 24 27 3e de f6 79 3c 95 83 8e be
       0.12282206 0.1632264 0.015256612 -0.27834764
000370 32 ac 0e 3e bb a8 87 3e c7 ad b4 3d 3c 0a 2b be
       0.13932875 0.2649592 0.08822208 -0.16703123
000380 a3 9f 94 3c 1b ef b8 3c 87 30 8d be 0c b9 99 bc
       0.018142527 0.022574952 -0.27576086 -0.018764995
000390 dd 40 95 3c 30 3f 7e 3d 1c 44 6f bd 22 21 59 be
       0.018219406 0.06207198 -0.058414564 -0.21204045
0003a0 1f a2 6e 3e 63 b7 70 3e 33 9b ce 3e 30 13 cd 3d
       0.23304032 0.23507456 0.40352783 0.10013425
0003b0 d4 61 73 3e 47 b5 cd bd 4d 1b 51 3e 9a 32 c2 bd
       0.23767787 -0.100443415 0.2042057 -0.09482308
0003c0 4c 79 6d 3e b6 c5 9a 3d ab 71 28 3e 35 07 12 3e
       0.23190802 0.075572416 0.16449611 0.14260562
0003d0 2a 3e 70 bc 7f 5a cc bd 09 33 4a 3e df d0 07 3e
       -0.014663259 -0.09978198 0.19746031 0.13263272
0003e0 d1 e3 6a 3d d3 71 2c 3d e8 c9 1f 3e 7b 11 86 3e
       0.05734617 0.04210074 0.15604365 0.26185212
0003f0 91 ca 9d 3d 1b 1b a6 bd 30 b0 3c bd 76 73 03 3e
       0.07704652 -0.08110639 -0.046066463 0.12837014

sequential/dense_1/BiasAdd/ReadVariableOp f4 [43]
000000 08 99 06 bf c8 b8 9c bc 95 13 28 be e2 b7 02 3f
       -0.5257726 -0.01913108 -0.1641372 0.5106183
000010 6b 17 cd be c6 96 bc 3e 5e 8e c3 3e e2 56 19 3d
       -0.4005693 0.3683378 0.38194555 0.037436374
000020 ec 7e 3d 3f 9e 70 bf 3c 3e 08 b9 3d fa 73 9b 3d
       0.7402179 0.02336913 0.09034775 0.0759048
000030 47 9e 1d 3d 7e 10 03 be 84 eb 5c be ec 6a 2c bc
       0.038481023 -0.1279926 -0.21574217 -0.010523539
000040 67 50 07 be 70 3b 89 be fd 32 7d be 63 49 81 be
       -0.13214265 -0.2680316 -0.24726482 -0.25251302
000050 5c 4f d5 3e ba 66 ce bd 3f b3 f4 be 06 5b 3f be
       0.4166211 -0.10078187 -0.47793004 -0.18687066
000060 1d ec 7a be 04 60 19 3d e6 73 8f 3e 2c 31 89 bd
       -0.24504133 0.037445083 0.2801811 -0.06698832
000070 d1 19 9c be 47 60 96 3e 7c 24 f0 3e 62 a0 42 3d
       -0.30488446 0.2937033 0.46902835 0.047516234
000080 a9 7a 69 bd 62 bc 95 bd e2 20 a4 be 1f de ec be
       -0.057001743 -0.07311322 -0.32056338 -0.46263215
000090 7d 9c f1 bd bc 71 e9 be fb 03 83 bd a3 f6 ea be
       -0.11797426 -0.45594585 -0.063972436 -0.45891294
0000a0 b9 86 b5 3c de 83 6e be 14 56 de bd
       0.022158967 -0.23292491 -0.10856262

sequential/conv2d/BiasAdd/ReadVariableOp f4 [32]
000000 bb ad 9e bc c3 2d 5d be 19 a2 83 bc 19 e6 6c bc
       -0.01936995 -0.21599488 -0.016068505 -0.014459156
000010 eb a1 bb be 41 f9 0d 3f 35 88 cf bc 9b 6e c8 bb
       -0.3664697 0.55458456 -0.025333503 -0.006116701
000020 6b 57 de bc a7 21 d9 bc 12 e8 31 3d d5 43 3f bb
       -0.027141294 -0.026505305 0.04343421 -0.0029184718
000030 cf 96 dd bd e4 9b dd 3e 9f bf 96 bd 12 9f 88 bc
       -0.1081978 0.43282998 -0.073607676 -0.016677413
000040 9e b0 47 3d 3e d4 b0 3c 19 cf 57 be e3 dc 90 3d
       0.04875242 0.02158558 -0.21075095 0.07073381
000050 d6 9c b8 bc de 00 bb bb 30 83 ec 3e 22 bb 1f bd
       -0.022535723 -0.0057068905 0.46193838 -0.038996823
000060 f0 0a e1 bb 77 f2 8b bc a5 9a 07 bd 6f 28 65 bc
       -0.006867759 -0.01708339 -0.033106465 -0.013986691
000070 24 49 20 bc 48 4f e7 bc ed 70 2c 3c b5 ca e3 3e
       -0.009783063 -0.028236046 0.0105249705 0.4449059

sequential/conv2d_3/BiasAdd/ReadVariableOp f4 [64]
000000 dc aa c9 bc b9 d0 34 be ff ab 0b 3f 5f a6 88 3d
       -0.024617605 -0.17657746 0.5455932 0.06672358
000010 1f ff 9f 3e e3 33 ea 3d f0 08 4a be 9d f8 bf 3e
       0.3124933 0.11435678 -0.19729972 0.37494364
000020 ac 49 47 bd 28 ea 24 3c b5 56 e0 3e f0 44 d7 3e
       -0.048654243 0.010065593 0.43816152 0.42044783
000030 0c e2 21 3d ab e1 a0 3e 41 23 a4 3e c2 46 ae 3e
       0.039522216 0.3142217 0.32058147 0.3403836
000040 8d f1 dc 3d 97 40 94 bd 0c be f6 bb 01 9f 4a be
       0.1078826 -0.07238882 -0.0075299796 -0.19787218
000050 d8 65 fb 3d f6 41 9c bc bc 85 ea 3e d4 25 ad bd
       0.122752845 -0.019074421 0.45805156 -0.08454481
000060 1c 04 0a 3e 00 8b 88 3d a9 a2 97 3d a2 dd dc 3e
       0.1347813 0.06667137 0.07404072 0.43137842
000070 44 9b ba bd 39 df 3b 3f 07 ff 62 bb 2a 6b 99 3d
       -0.09111646 0.73387486 -0.0034636871 0.07491143
000080 4a 60 8f 3e 3a c7 9a 3c 3e 8b 1e 3e 2b 22 50 be
       0.2800315 0.018893827 0.15482804 -0.20325534
000090 4a 59 f8 3e e1 4a 9b bd ea 99 51 3d 66 5e e4 bd
       0.48505622 -0.075826414 0.051172175 -0.111508176
0000a0 3d 76 93 bc db 6e c3 3e 27 8b ae be e7 2a 98 3e
       -0.018000716 0.38170514 -0.3409054 0.29720232
0000b0 00 9c 3e 3f c9 fe b8 bd 88 8b 13 3f e0 70 3e be
       0.7445679 -0.090329714 0.5763478 -0.18597746
0000c0 9e 84 14 3f cb 33 ec bd 29 bb dc 3d 65 d8 57 be
       0.5801486 -0.11533316 0.107778855 -0.21078642
0000d0 5a d7 89 3e 37 78 9b bd cd 24 d1 3e 0f 92 b2 bd
       0.26922113 -0.075912885 0.4084839 -0.08719265
0000e0 14 3f fd 3e 12 a6 c8 3e f9 00 45 3e ad 5a ea 3d
       0.49462187 0.39189202 0.19238652 0.11443076
0000f0 f9 04 b2 3e be 46 4a be 3a fc aa 3e bd 7e 5a 3e
       0.3476942 -0.19753549 0.3339556 0.2133741

sequential/conv2d_2/BiasAdd/ReadVariableOp f4 [64]
000000 30 ab 9c 3d 3d 73 67 3f 03 f8 c2 3e fe b0 62 3f
       0.07649839 0.90410215 0.38079843 0.8855132
000010 9b 44 93 3e d8 50 62 bf 55 4f 34 3e fe 62 4e 3e
       0.2876328 -0.8840461 0.17608388 0.2015495
000020 2d 8c 3c 3e 72 a1 00 bc 01 72 19 bf 24 b9 80 3f
       0.18412848 -0.007850992 -0.5993958 1.00565
000030 27 72 8e be 34 0d 73 bd 50 5f bc be 6a 34 21 3f
       -0.27821466 -0.059338763 -0.36791468 0.629706
000040 2f a5 f6 bd 7d 59 46 3f ae df 40 3f 32 25 ec 3e
       -0.12043225 0.774803 0.7534131 0.46122128
000050 3b 71 9f 3e 81 a2 ea be 71 72 d7 3d 76 7e 0b 3f
       0.31141075 -0.45827106 0.10519875 0.5448984
000060 67 c9 37 3f 16 98 01 3f 07 e8 ca be 99 21 c8 be
       0.7179169 0.5062269 -0.39630148 -0.39088133
000070 11 85 4a bf 5d dd b2 3e 75 eb 65 bc d4 b4 3a 3f
       -0.79109293 0.34934512 -0.014033188 0.7293217
000080 c6 0b b2 be 90 c1 e8 bd b6 ff 45 3f 3b ca 75 3e
       -0.34774607 -0.11365044 0.7734331 0.24002926
000090 7f 47 08 3f 3d 01 80 be 83 34 6e 3c 47 7a 91 bf
       0.53234094 -0.25000945 0.014538887 -1.1365441
0000a0 dc 24 90 3f dd b8 7b 3e 84 9d da 3e 74 5b 5a 3f
       1.1261249 0.24582238 0.426983 0.85295796
0000b0 4f f2 a0 3f 94 98 89 3d a4 2d 58 bf 84 b3 d4 3d
       1.2573947 0.06718555 -0.8444464 0.103858024
0000c0 69 cc 88 3b d6 42 a0 bf 92 02 38 3c e4 68 31 bf
       0.004174758 -1.2520397 0.011231082 -0.69300675
0000d0 e9 ba f3 3d c9 17 dc 3e 4b c9 32 3e d8 78 9d bd
       0.11900885 0.42986897 0.174596 -0.07689065
0000e0 e2 81 98 3f e9 d3 34 be 14 a7 45 bd 2d 73 9a 3e
       1.1914637 -0.17658962 -0.04825504 0.30165997
0000f0 8a 04 a3 be 63 a0 64 bf fb e0 02 3d bb 6e 4c bf
       -0.318394 -0.8930723 0.03195284 -0.7985646

sequential/conv2d_1/BiasAdd/ReadVariableOp f4 [32]
000000 bc 2a 78 3d ee 55 99 be fa e0 dd 3d f9 91 79 be
       0.06058763 -0.29948372 0.108339265 -0.2437209
000010 08 4b e5 bd b4 db 3c bd ac 96 9d 3d 33 a7 8b 3d
       -0.11195952 -0.046107963 0.07694754 0.06819
000020 50 dd ca bd fd 3c 18 3e 64 25 3e bb e4 f0 0d 3e
       -0.09905493 0.14867015 -0.0029013986 0.13861424
000030 36 8e d9 3e 22 6b 30 be d7 55 24 3e b1 49 61 be
       0.4249131 -0.17228368 0.1604837 -0.22000767
000040 ee 45 fc bc a7 27 e4 3d df fc cb bc 0e c3 31 be
       -0.030795064 0.111403756 -0.024900852 -0.17359564
000050 1b 04 43 3e d1 a9 80 bc 09 4f 09 be fe 7a ae 3d
       0.19044535 -0.015705975 -0.13409056 0.08519553
000060 b7 ac ea 3c 2d 77 6d bc 1e 81 eb bd 4b 8c 39 bd
       0.02864681 -0.014493746 -0.114992365 -0.04529981
000070 90 12 b3 bd a4 81 3d bd ad f5 18 be b9 0c 01 bd
       -0.08743775 -0.046266213 -0.14937468 -0.031506274

sequential/dense/MatMul f4 [256, 576]
000000 d1 19 0c 3d 4d 17 26 3e a1 80 06 be 37 66 88 bd
       0.034204308 0.16219826 -0.13135006 -0.06660121
000010 df 20 b2 3c dc 2f 11 bc 9c 65 03 bd 2c 96 06 be
       0.02174419 -0.008861508 -0.032079324 -0.13143224
000020 2f 25 0c 3d 73 d7 13 bd 7c a4 f0 bd 46 87 eb ba
       0.03421515 -0.03609414 -0.11750123 -0.0017969392
000030 9b 52 0c bd 91 bd 23 3e 2e 80 d2 3d 25 6b 82 bd
       -0.034258466 0.15990283 0.102783546 -0.063680924
000040 b7 e1 03 be f7 4f 2e 3d 56 b3 22 be d7 8f 96 bd
       -0.12879072 0.04255673 -0.15888724 -0.07351654
000050 96 f0 08 3c 82 73 b8 3d f7 b8 f2 3b 8b b9 b9 3b
       0.008358141 0.09006406 0.0074073034 0.0056678704
000060 04 c3 8c bd 31 1c 35 3e 06 35 e3 bd 52 56 fb bd
       -0.06873134 0.17686535 -0.11094098 -0.12272324
000070 45 42 36 bd fa 94 25 bc b3 1e d6 3b f4 06 36 be
       -0.044496793 -0.01010632 0.0065344214 -0.1777609
000080 36 96 d9 bd 15 de a0 3d da a6 43 bd ea 24 f7 bc
       -0.106243536 0.07854859 -0.047766544 -0.03016897
000090 b5 d5 0c be 12 38 0f 3d e1 b2 41 3b aa 5d 8f 3d
       -0.13753398 0.034965582 0.0029556083 0.07000287
0000a0 39 83 21 3c 34 5a 16 bc 97 c1 ea bd d2 31 e4 3c
       0.009857946 -0.00917678 -0.114627056 0.027855787
0000b0 45 38 a7 3d 44 20 b4 3b c9 c9 ce 3c 64 e6 a7 bd
       0.081650294 0.0054970104 0.025242703 -0.081982404
0000c0 21 fe ab bc e9 0e ca 3c 7a 4e 9e 3c df f0 f3 bc
       -0.020995202 0.024665313 0.01932453 -0.029777942
0000d0 14 c2 59 bd 4d a2 11 3c ef c3 f5 bc f3 58 1d bd
       -0.053163603 0.008888793 -0.030000655 -0.038414907
0000e0 68 9f b2 bd 93 ab 4a 3d 45 4a 06 3e c2 ea d8 bd
       -0.087218106 0.049480032 0.13114269 -0.105916515
0000f0 55 8f b8 bc 14 74 e4 bd 6d 00 35 3d 75 58 9b bd
       -0.022529284 -0.11154953 0.04418986 -0.07585231
000100 13 0b b6 bd 3a e1 09 3d c0 4e a9 bd b9 96 51 bd
       -0.08888831 0.03366206 -0.082669735 -0.05116913
000110 00 5a ba bd f2 05 44 bd 98 3e 48 bb b4 47 35 3e
       -0.090991974 -0.047857232 -0.0030554887 0.17703134
000120 74 b4 08 be 79 0e 18 bc c6 0a 27 be 1f d8 ab bd
       -0.13350087 -0.009280794 -0.16312703 -0.08390831
000130 1b d1 ce bc c8 3c 46 3d 3a 15 be bd ce 62 f8 bc
       -0.025246194 0.04839781 -0.092813924 -0.030320551
000140 f1 bf da bd d0 6f d2 bc 81 a9 32 be 19 f0 a2 bd
       -0.10681141 -0.025688082 -0.17447473 -0.07955951
000150 2b 4d 67 bd ae 4c 49 bc 13 bc 27 be ee 94 8b 3c
       -0.056470077 -0.012286348 -0.16380338 0.017038789
000160 9d 48 3a bd 0b 1e 76 bd d0 f9 af 3d 28 79 3b be
       -0.045479406 -0.060087245 0.0859257 -0.18307936
000170 ae aa d4 bc d5 d8 99 bd e0 6d 51 3d 96 eb 3c bd
       -0.025960293 -0.075120606 0.051130176 -0.04612311
000180 b9 24 3a bd 2e 5a 40 3c b1 93 fb 3c 82 f4 42 be
       -0.045445178 0.0117402505 0.030710073 -0.19038585
000190 86 3f 3f bd 89 64 67 3c a0 7f 30 3d 17 89 f0 bc
       -0.04669144 0.014123091 0.043090463 -0.029362245
0001a0 e0 0a b1 3d 8e 1a e5 3c b0 61 c0 bd 37 12 17 be
       0.08644652 0.027966764 -0.093936324 -0.14753042
0001b0 99 ff cf 3c 3c 83 a8 bd 30 7f 19 bd d1 07 1e 3d
       0.025390433 -0.08228156 -0.03747481 0.038581673
0001c0 50 bd 53 bd 66 0e a7 bd 66 55 aa 3d de 2a 23 3c
       -0.051694214 -0.08157043 0.0831707 0.009958951
0001d0 4d a2 ba bd ff b1 49 3d 74 5b 26 3e 55 8e 7b bd
       -0.09112988 0.049242016 0.16245824 -0.061415035
0001e0 3e 18 68 3c 3e 60 34 bd 87 f4 0c be f5 8c 72 bd
       0.014165936 -0.044037096 -0.13765155 -0.05921646
0001f0 02 1c df bd d3 c0 3c bd c3 92 85 3c fc 24 14 be
       -0.10894014 -0.04608233 0.016305333 -0.14467233
000200 d9 b2 3e bc 62 b2 81 bd ea ad 74 bd f5 45 4e bd
       -0.01163932 -0.06332852 -0.05973617 -0.050359685
000210 01 85 1a 3d 4f 33 b0 3d 41 2a 05 be 63 29 40 3c
       0.0377245 0.08603536 -0.130044 0.011728617
000220 98 02 e3 bd 73 2d 01 bd d9 94 89 be 4a 35 bb 3b
       -0.11084479 -0.031537484 -0.26871374 0.0057131397
000230 d0 8d b0 bc 67 8c a7 bc b9 04 15 be 45 72 bc bd
       -0.021551996 -0.020452691 -0.14552583 -0.09201483
000240 e2 39 8c bd 22 4e 86 bd f3 a0 9b bd 6a cd 5a be
       -0.06846978 -0.065578714 -0.07599058 -0.21367422
000250 c4 00 e0 3c 79 fa 15 3d 1d 84 6b 3d 2f 18 f6 3d
       0.027344115 0.036615822 0.05749904 0.120163314
000260 ce 7c b0 3d 11 1c 18 3e 05 08 a9 bc e5 c7 a3 bd
       0.086175546 0.14854456 -0.020633707 -0.07997111
000270 da 7d 86 bd 92 14 bf 3d 0c c3 32 3d a3 e2 f1 bc
       -0.06566973 0.09330095 0.043643042 -0.029527014
000280 dc 26 ef 3b 87 41 51 bd a5 98 c9 bd 08 33 74 3d
       0.0072983336 -0.051087882 -0.09843568 0.05961898
000290 74 d4 06 3d 5a 6f 53 bd cf 38 fb bd 00 48 6d bc
       0.032917455 -0.051619865 -0.12266695 -0.014482498
0002a0 d6 3c ec ba 79 99 fe bd 1b 14 84 bc c3 a6 f4 bd
       -0.0018023502 -0.12431616 -0.016122868 -0.1194587
0002b0 2e 6d ad 3d 8b ce a4 bd a0 dd 07 3e ed 97 97 bd
       0.0846809 -0.080472074 0.13268137 -0.074020244
0002c0 3b 01 f5 3d b2 7c ad 3d b6 ea 3e bd bf 97 85 3b
       0.11963125 0.08471049 -0.046610557 0.0040769274
0002d0 4f 3d 6d be c2 74 1b bd f5 57 5c 3c b9 56 83 bd
       -0.23167919 -0.037953146 0.013448705 -0.064130254
0002e0 c0 70 e8 bc 88 0e 87 3d 53 ff 89 bd 2f 0e 12 be
       -0.028374076 0.065945685 -0.06738152 -0.14263223
0002f0 87 c1 ef 3d 4c 6e 80 3d 17 bd df bd 97 81 18 be
       0.11706834 0.062710375 -0.10924738 -0.14893185
000300 d6 9f b8 3b c0 79 6b bd ad c4 ca bd 96 79 0b 3b
       0.0056342883 -0.057489157 -0.09900794 0.0021282188
000310 e6 d5 04 bc f7 0b 34 3e 92 d7 dd 3c 28 c2 11 3d
       -0.008107638 0.17582689 0.027080331 0.035585552
000320 59 a4 cf 3d 08 f6 dd bd 1b af cb bd 3b 18 42 be
       0.10138769 -0.10837942 -0.09945508 -0.18954556
000330 17 4e 84 bd 60 4b 23 be 9c 48 ba bc 7d 1d 67 bb
       -0.06460207 -0.15946722 -0.022739701 -0.003526538
000340 92 d0 90 3d 78 f5 f9 3d d0 21 e9 3d 1a 70 ad 3d
       0.07071032 0.122050226 0.11383402 0.08468647
000350 da e5 95 bd ae 4a d7 3d 34 e4 dc bd 26 72 c7 3d
       -0.07319231 0.10512291 -0.10785714 0.09738569
000360 df c1 27 bd 46 02 14 be 34 86 e2 bc 4f 43 49 be
       -0.040956374 -0.14453992 -0.027651884 -0.19654582
000370 00 ac a1 3d 43 73 a8 3d 3c 35 78 3d b4 fa 10 3c
       0.078941345 0.082251094 0.060597643 0.008848835
000380 40 2b dc bd 82 b1 d9 bd 01 d6 d2 bd 8e 6a f4 bd
       -0.10750437 -0.1062956 -0.10294724 -0.11934386
000390 9c 32 c2 bd 8a fb 3c bd b7 90 e3 3c 81 f3 ae 3c
       -0.09482309 -0.046138324 0.027778966 0.021356346
0003a0 d2 01 13 bc 2c fa 91 bd 4e 94 b9 bc cf de 73 3d
       -0.008972602 -0.071277946 -0.022653725 0.05953866
0003b0 4d 59 83 bd ff 58 7b bb 6a 42 17 3d ba d1 a7 bc
       -0.06413517 -0.0038352606 0.03692857 -0.020485748
0003c0 5f 23 d1 3c c0 93 37 3c 25 55 b0 bd 2d 8c 00 be
       0.025529562 0.01120466 -0.0860999 -0.12553473
0003d0 5b 41 6b bd ec f0 88 bd 1f df b1 3c 33 1e e7 3c
       -0.057435375 -0.06686577 0.021712838 0.028212642
0003e0 34 fb fb bd 49 ac 76 3b 22 f4 76 3e 8b cf 70 bc
       -0.123037726 0.003763931 0.24116567 -0.01469792
0003f0 1f 66 27 bd 4f ba 2a be 4b 93 c1 3b 4d 65 fc bd
       -0.040868875 -0.16672634 0.0059074513 -0.12324009

sequential/dense_1/MatMul f4 [43, 256]
000000 a3 88 b2 3d 90 94 85 be 54 51 27 bf 05 1f db 3c
       0.08717468 -0.26089907 -0.6535847 0.02674819
000010 8b d3 cf 3c de 3e a7 3c 4e 26 e6 be b0 b3 98 bd
       0.025369426 0.02041572 -0.449511 -0.07456148
000020 8e 78 6e 3d 3d 8b 4a be d9 be e0 bc 2b ef c2 bb
       0.05822044 -0.19779678 -0.027434753 -0.005948921
000030 cd 38 34 be c9 d1 c8 be 16 50 35 be d4 81 b2 be
       -0.17599793 -0.39222553 -0.17706332 -0.34864676
000040 75 f7 c4 bd 42 71 73 3d 86 4d 88 3d 15 0c b0 be
       -0.09617511 0.059434183 0.066554114 -0.34384218
000050 8e 6d f7 3d f5 8f 92 be 22 b2 df be 43 0c fb bd
       0.12081443 -0.28625455 -0.43690592 -0.12258198
000060 f8 ee 85 be b6 cd 00 bd e1 63 8a 3c 3d 9a e0 3d
       -0.2615888 -0.03144618 0.01689333 0.109669186
000070 4d f5 fc bb 90 e7 df 3c 51 13 8e bd 1c 05 82 bd
       -0.007719672 0.027332097 -0.06937278 -0.06348631
000080 f0 7c 81 be 63 86 69 3d 46 fb 2c 3e f5 e8 c8 3c
       -0.25290632 0.057012927 0.16892728 0.024525145
000090 89 e7 78 bc 17 14 31 3e e4 d3 0c bf a1 46 d3 be
       -0.015191921 0.1729282 -0.5501082 -0.41264823
0000a0 d2 d4 b3 bd da a9 c3 be fc 9c 13 bd b3 20 3f be
       -0.08780827 -0.38215524 -0.036038384 -0.18664818
0000b0 35 22 85 be ad 46 a1 be d5 b3 2d be 2c 72 89 bb
       -0.2600266 -0.31499234 -0.16963132 -0.0041945186
0000c0 c6 d8 c7 bd 2f 18 58 be 57 0f 00 be 63 a1 63 bd
       -0.09758143 -0.21102975 -0.12505852 -0.055573832
0000d0 55 54 17 3e 42 b2 3a 3e 75 62 f7 bd 5e 9b 24 be
       0.14778264 0.18232062 -0.12079326 -0.16074893
0000e0 26 05 3c bd 09 df c6 be f3 c8 eb be ad af 89 3d
       -0.045903347 -0.38842037 -0.4605175 0.067229606
0000f0 13 ac 13 be a7 3b 9c bc ca 4f db bd 28 ef 20 3e
       -0.1442111 -0.019071413 -0.10708578 0.15716231
000100 48 96 b3 be 11 31 89 be 8a 0c 99 3d 02 4d d7 bd
       -0.35075593 -0.26795247 0.07473095 -0.10512735
000110 ab 0f 8e bd 16 8b 13 be 6e 9a 1b be a8 3c c7 3d
       -0.06936582 -0.14408526 -0.15195629 0.09728366
000120 37 b6 ee bb ea 74 f8 3c 99 f9 8e be 71 3b 40 be
       -0.0072849053 0.030329186 -0.27924803 -0.18772675
000130 f5 26 5b be 8b e3 40 bd 28 d4 47 3d 8b db eb bd
       -0.2140158 -0.047092002 0.048786312 -0.11516484
000140 9b 09 44 3b 03 01 67 be 02 c3 4b bd 7a 10 06 be
       0.0029912952 -0.2255898 -0.04974652 -0.13092223
000150 93 80 8e bc 6d 0c d4 bb ed cf 85 bb 39 cd 0e bd
       -0.017395293 -0.006471208 -0.0040836246 -0.034863684
000160 71 68 91 3d c0 ee e7 3d 0b 5f b5 3c 8d 0f 6a ba
       0.07099999 0.11324835 0.022140047 -0.0008928709
000170 9a f9 ab 3d 9c 97 8a 3d 30 41 3f be 40 d4 51 be
       0.08397217 0.067671984 -0.18677211 -0.20491123
000180 82 d3 8f be 3a 51 7d bd 3d b8 8f bc dd bd a8 be
       -0.28091055 -0.06184504 -0.017543906 -0.32957354
000190 31 9f 79 bd 05 41 a2 be 6f 8a 57 be 0d d8 c1 3d
       -0.060942832 -0.3169023 -0.21048902 0.094650365
0001a0 92 92 a8 be 0f ab 20 be a2 58 20 bc f4 89 a5 3c
       -0.32924324 -0.15690254 -0.009786757 0.020207383
0001b0 89 fe 00 3d e8 7e 84 bc 44 ad 0c bd 5c bb 54 3d
       0.031492744 -0.016173795 -0.034344926 0.051936492
0001c0 f3 c6 f1 3d d9 2d 21 bd 16 c6 24 be 79 13 78 be
       0.11805525 -0.039350364 -0.16091189 -0.24226178
0001d0 51 7b 56 bd a9 08 1b be a0 e7 32 be 26 08 29 be
       -0.052363697 -0.15140022 -0.1747117 -0.16507015
0001e0 f6 c5 8a be 5a 3c 98 3d f9 ba ab 3d bb 30 1f 3c
       -0.27104157 0.07433386 0.083852716 0.009716208
0001f0 41 1e 9a be 03 8a 3b be 68 52 fb bd 5d 30 a6 3d
       -0.30101207 -0.18314366 -0.12271577 0.08114693
000200 1d 2b 10 bc 2c d6 0c 3d 48 42 7d be 27 0e 79 bd
       -0.0087993415 0.034383938 -0.24732316 -0.060804512
000210 f0 5a b6 bc 0f 77 00 be f5 fd 8a be 76 59 d9 be
       -0.02226016 -0.12545417 -0.2714688 -0.42451066
000220 d3 74 dd 3d ed a2 11 bd 65 bc 25 3c f0 0c 1c bd
       0.10813298 -0.03555577 0.010115718 -0.038098276
000230 f4 74 1c 3e 20 27 59 be 6e e7 b0 bd 23 de 12 be
       0.15278989 -0.21206331 -0.08637892 -0.14342551
000240 34 7c 10 3e ff ff 1e bf 6f 67 14 bd fc 6d ec be
       0.1410988 -0.6210937 -0.036231454 -0.4617766
000250 bb cb b2 be 5d 0c 2b bd 41 81 dc bd 1b 7e 04 bb
       -0.3492106 -0.041759837 -0.10766841 -0.0020216766
000260 8d 2e 2c be 81 a0 0b be eb 0f 5a bd 8b bd 07 3c
       -0.16814633 -0.13635446 -0.053237837 0.008284937
000270 04 eb cc bb 87 2a b6 be 8b 74 6b bd 3c fc 6f 3d
       -0.006253602 -0.3557932 -0.05748419 0.05859016
000280 53 2b ab 3c e9 7e 60 be 82 d1 a2 be e6 09 93 3d
       0.020894682 -0.21923412 -0.31800467 0.07179622
000290 d6 30 50 bd c4 c1 a3 be 29 1f 7a be f9 f8 64 be
       -0.050827824 -0.3198377 -0.24425949 -0.223606
0002a0 95 8b 1c be ba de 20 be e0 2b f5 bb 73 44 75 be
       -0.15287621 -0.15709963 -0.007482037 -0.23951893
0002b0 56 29 94 be a1 5d 10 be 3f d2 2f 3c 95 2f d2 3d
       -0.28937787 -0.14098217 0.010731279 0.10262982
0002c0 b8 47 e5 bb 0c 34 b8 bc 8f d1 cb be cf a0 50 be
       -0.006997075 -0.022485755 -0.39808318 -0.20373844
0002d0 4b ff 13 be 2a 05 14 bd c5 31 1a 3d d0 58 a5 3d
       -0.14452855 -0.036137737 0.03764512 0.0807358
0002e0 ce 78 24 3e 1b 7b eb 3c d3 a3 31 3c d9 7d f5 bc
       0.16061708 0.028745225 0.010842281 -0.029967235
0002f0 dc 2c cd bd c8 97 8d bd 3e bf 17 bd 22 44 23 be
       -0.10018322 -0.069137156 -0.037047617 -0.1594396
000300 22 50 6c 3d 50 b8 b0 be 66 96 ac be 93 14 f5 bc
       0.057693608 -0.3451562 -0.33708495 -0.029917037
000310 0b 3e 84 3d dc f6 98 3d a6 11 e8 bd 57 c0 17 bd
       0.06457146 0.0746896 -0.11331491 -0.037048664
000320 bb 83 c9 3d da 0a f4 bd 21 72 61 be 12 a0 99 bd
       0.09839579 -0.11916132 -0.22016193 -0.07501234
000330 e6 39 45 be 18 72 72 bd b5 7a 92 bd da 02 b2 bc
       -0.19260368 -0.05919084 -0.07152311 -0.021729875
000340 4a af 23 ba a9 df 0b be 4b 5c 86 bd 7a 1f 5b bd
       -0.00062440766 -0.13659538 -0.06560572 -0.053496815
000350 69 48 0b 3d 75 77 15 be 57 71 f8 3d 69 eb db bd
       0.034004603 -0.1459635 0.12130993 -0.1073826
000360 7d a9 44 bd 90 fc c2 be c0 d4 dc bd 76 9d cd 3c
       -0.0480132 -0.38083315 -0.10782766 0.025099497
000370 ae 96 95 3b c4 e6 60 be e4 77 05 be 92 8a e5 bd
       0.0045650816 -0.2196303 -0.13034016 -0.11208071
000380 f9 18 5e 3e b7 bb f6 bd 56 72 6a 3b 60 76 f4 bd
       0.21689214 -0.120475225 0.0035773716 -0.11936641
000390 b9 40 d7 bd ca f8 96 3c 4f d2 71 3b c7 01 05 3e
       -0.10510392 0.018429179 0.0036899035 0.12988959
0003a0 cc 52 41 be 62 7e 95 bd 18 ff 90 bd 51 12 68 3d
       -0.18879241 -0.07299496 -0.07079905 0.056658093
0003b0 44 99 4b be 9d ef 41 bd 34 96 06 3d 1d 82 16 3e
       -0.19882685 -0.047347654 0.03285809 0.14698072
0003c0 12 3a dd 3d 16 84 1c 3e 5d 45 9b be 85 72 00 bf
       0.10802092 0.15284762 -0.30326357 -0.5017474
0003d0 55 7b 4a 3d 34 56 96 be 1a 46 86 bc 09 64 29 3e
       0.049434025 -0.29362643 -0.016390849 0.16542067
0003e0 52 bf c8 3d 63 e0 9a 3b 88 df ec be aa a4 7a be
       0.098021165 0.004726456 -0.4626429 -0.24476877
0003f0 fc f2 55 be 80 23 4c be 4a 2c ca bd e2 84 9b bd
       -0.20893472 -0.19935417 -0.09871729 -0.07593705

sequential/conv2d/Conv2D f4 [32, 5, 5, 3]
000000 3e 8d 29 bd 6e cd 4b 3d fa 2c b1 bd 9d ae f1 3c
       -0.041394465 0.04975646 -0.08651157 0.029502207
000010 9d ed bc bd 90 4d 5a bd 2a 3b fa bc 39 2c 30 bd
       -0.09225009 -0.053296626 -0.03054579 -0.043010924
000020 a9 67 0c bc fd 73 22 3d cd cd 78 bd 68 f9 ef 3c
       -0.008569636 0.039661396 -0.060743142 0.02929373
000030 63 9b 4e bd 00 1d ce bd d2 3e db bd 4f d9 a3 3c
       -0.050441157 -0.10064125 -0.107053414 0.020001082
000040 0b 81 32 bd e4 7a 9d bd f2 d0 76 3d 02 50 68 bc
       -0.043580096 -0.07689455 0.06025786 -0.014179232
000050 c5 d2 c0 bc 57 a3 a0 bd ea d6 72 bd 10 93 00 bc
       -0.023538003 -0.078436546 -0.05928699 -0.007847562
000060 b5 6b eb bc 75 c4 8e bc 9d ea 04 3d 33 f2 3d 3d
       -0.028737882 -0.017427662 0.032450307 0.046373557
000070 86 04 10 bc 0c ed 46 3d af ef 66 3d ea f8 c9 3c
       -0.008790141 0.04856591 0.056380924 0.024654824
000080 d9 2b ca bd f6 86 42 3d 5f 53 29 bd 12 50 e3 3b
       -0.098716445 0.04749199 -0.041339274 0.0069370354
000090 01 fe a2 bd 6a f5 55 bd 81 9f 39 bd 3b fb a7 3c
       -0.07958604 -0.052236 -0.04531813 0.020505538
0000a0 ef 31 2f bd cf a3 bd bd 51 04 4c bd 5e f7 59 bd
       -0.04277223 -0.0925976 -0.049808804 -0.053214423
0000b0 eb 86 94 bd eb b2 a1 ba 2a b8 95 3d 76 44 a0 bd
       -0.07252296 -0.0012336647 0.07310517 -0.07825558
0000c0 a7 b4 be bd 79 28 91 bb 9f ed 82 3a be e5 27 3d
       -0.093118005 -0.0044298735 0.000998903 0.040990584
0000d0 60 a0 53 3b 11 b0 19 bd 13 34 a5 bd 87 82 5f 3d
       0.0032291636 -0.037521426 -0.08066573 0.05456784
0000e0 fd 00 31 3d 03 d7 37 3c 06 a8 3f bd 0c bf 70 3d
       0.043213833 0.011220696 -0.0467911 0.058775946
0000f0 c3 2a c5 bb a0 f6 20 bd e5 8e f5 3a 13 86 66 bd
       -0.0060170605 -0.0392977 0.0018734602 -0.056280207
000100 87 79 38 3c c0 a1 3d bc 5e 50 71 bd cb af 05 bd
       0.011259443 -0.011574209 -0.058914535 -0.032638352
000110 5c 97 8e 3d 2e b6 a3 3c ec 08 2f 3d 01 e3 08 3d
       0.06962463 0.019984331 0.042733118 0.033419613
000120 34 79 b1 bd 33 32 ad bc ff ee 42 bd eb 88 39 3d
       -0.08665696 -0.0211421 -0.047591206 0.04529659
000130 54 15 12 3e df 11 f8 bc bf 40 33 3e 2e 98 84 3d
       0.14265949 -0.03028196 0.17505167 0.064743385
000140 5d 04 fe bc 5f 69 a0 3d 5a 7a 28 bc a6 bc 86 3d
       -0.03100794 0.07832598 -0.010283077 0.065789506
000150 8d 88 3e 3d 16 30 96 3d 77 c1 23 3d a2 3f 47 3d
       0.046516944 0.073333904 0.039979424 0.04864467
000160 cf 57 2b 3d d7 a3 52 3d 3d c5 1b 3d 6a 9a 29 3c
       0.041831788 0.05142578 0.038029898 0.010351757
000170 ab 3a c3 3b aa 10 bc 3d 4d 46 91 3c a8 4c e2 bd
       0.0059579215 0.09182866 0.017733717 -0.11049777
000180 30 0b 6a 3d a9 37 ec 3c e8 53 46 bd 40 8a a9 3d
       0.057139575 0.028835135 -0.048419863 0.08278322
000190 e5 aa 31 3d f6 b7 61 3c f7 5f ce 3d e5 e3 0b 3d
       0.04337587 0.01377677 0.100768976 0.034152884
0001a0 b5 5e ab 3d de 03 98 3a 22 25 e2 bc cd 9e 17 be
       0.08367673 0.0011597832 -0.027605597 -0.14806671
0001b0 bb 1e 83 bd 62 32 06 be 15 13 4c be 04 76 3a bd
       -0.06402346 -0.13105157 -0.19929154 -0.045522705
0001c0 e1 2c 1c be e8 af 44 be 7e e8 7a bc 09 f0 8e 3d
       -0.15251495 -0.19207728 -0.0153142195 0.06979377
0001d0 83 31 09 3c 4b f1 98 3d 55 84 7a 3d 7b dd c3 bc
       0.008373621 0.07467898 0.061161358 -0.023909321
0001e0 a0 d1 5a bd 39 5e 8c bd 5d 37 e3 bc a1 e1 ca bc
       -0.05342257 -0.06853909 -0.02773636 -0.024765791
0001f0 a4 bf 86 bd e4 c4 f9 bd b8 13 cf bd 26 e1 be bd
       -0.06579521 -0.12195757 -0.10111183 -0.093202874
000200 28 80 05 be 8f d1 33 bd 27 fc 08 bc 1f 78 77 3d
       -0.13037169 -0.043901023 -0.008360899 0.06041729
000210 d0 29 5c 3d e0 55 25 3e e2 17 0e 3e d3 aa ab bd
       0.053750813 0.1614604 0.13876298 -0.083821915
000220 97 f4 52 bd 97 f9 3a be 17 84 3c bd b1 e3 c8 bd
       -0.05150279 -0.18259273 -0.04602441 -0.09809054
000230 07 7b 73 be 90 bb d4 b7 a4 f4 a4 bd 3f 00 26 bd
       -0.237774 -2.535971e-05 -0.08054474 -0.04052758
000240 41 d9 1d bc fd 07 18 bc 9a 06 8b bd 35 7c 27 3d
       -0.009634317 -0.009279248 -0.067883685 0.040889937
000250 16 59 86 3d ca 0f d7 3d 5b 5c 7a 3d af 9c fc 3c
       0.065599605 0.105010584 0.061123233 0.030836431
000260 84 97 70 bd 2e 3d 4a 3d 95 1c cd ba b3 b3 40 bd
       -0.058738247 0.04937475 -0.0015648777 -0.047046375
000270 61 94 06 bd b7 8a b9 bc ba f1 2d bd ee 9e 5c 3d
       -0.03285635 -0.022649152 -0.042466857 0.053862505
000280 a3 7e 82 bc a2 d5 8b bd de 52 b9 bd 13 09 59 bd
       -0.015929526 -0.068278566 -0.09049009 -0.05298717
000290 82 4a b8 bd 7f 29 c9 3c f9 72 b3 bd 58 f3 a0 bd
       -0.08998586 0.02455592 -0.08762164 -0.07858914
0002a0 3a 14 6f 3c 58 0f 8b bd c8 46 86 bd 93 3d c8 bc
       0.014592225 -0.06790036 -0.06556469 -0.024443423
0002b0 9b 6c 10 bc 35 4b 53 bc 6b ae 6c bc 31 f4 66 3d
       -0.008814956 -0.012896349 -0.014445881 0.056385223
0002c0 44 02 d0 3c 0d 6a ab bd cd 4d 7f 3c 45 24 8a bc
       0.025391705 -0.08369837 0.015582514 -0.016862998
0002d0 25 94 08 bd 07 20 88 bd 6b 0e eb 3c b8 79 22 3b
       -0.033344407 -0.06646734 0.028693398 0.0024791788
0002e0 dc af 59 3d 39 7d b1 bd 79 44 2b 3b 39 f9 ad 3c
       0.05314623 -0.086664625 0.0026133342 0.021237003
0002f0 9f c8 ec 3c 84 00 40 3d 98 77 6a 3c 2a 58 d2 bd
       0.028904257 0.04687549 0.01431074 -0.10270722
000300 21 9e 42 3b 6c d5 11 3d 51 71 fd bc be 32 88 3c
       0.0029696303 0.035603926 -0.030937823 0.016625758
000310 4f 51 fe bc 0b e1 bd b7 e2 0c e6 bc f2 33 8f bc
       -0.03104463 -2.263535e-05 -0.028082315 -0.017480824
000320 8c e7 54 3d 54 d3 2e bc 2d 12 b5 bc e4 34 81 bb
       0.051978633 -0.010670502 -0.022103393 -0.0039430726
000330 e4 e5 cc bd a4 9c ea 3b 9c 9e 3c 3d b8 7b 4b bc
       -0.10004786 0.0071597863 0.0460497 -0.012419634
000340 21 f3 71 3c 37 ab 0b bd 6d 17 ca bc a7 59 4e 3a
       0.014767439 -0.03409883 -0.024669373 0.00078716356
000350 59 c2 d5 bc 1a 4e cb 3c 02 04 07 bb 37 11 a2 bd
       -0.026093649 0.024817515 -0.0020601754 -0.0791344
000360 27 5a 4a 3c 01 61 a3 bd 2b d2 8e 3c 77 e6 89 bc
       0.012350596 -0.079774864 0.0174342 -0.016833527
000370 47 e2 69 3c f4 0c 9f bd 1a fb c8 bd 79 ab 5b bc
       0.01427514 -0.077661425 -0.09813519 -0.0134075815
000380 a9 56 a7 bc 58 29 ea bc c6 bf e5 3c f4 de cc bd
       -0.020427065 -0.028584167 0.028045546 -0.100034624
000390 2c 3c 73 3c 14 42 87 bd c2 aa ae bd db 18 f0 3b
       0.014845889 -0.066044 -0.08528663 0.0073271818
0003a0 78 54 b2 3c b1 a1 04 3d 11 e3 cf 3c 3b b7 c8 3c
       0.021768793 0.032380763 0.025376828 0.024501434
0003b0 05 23 fa bc 05 07 55 bd 2e b5 37 bd ba 73 ad bd
       -0.030534277 -0.052008647 -0.04485052 -0.08469339
0003c0 8a db bd bc 9e a1 9a bd e4 20 32 3d 66 59 61 3d
       -0.023175973 -0.07550357 0.0434884 0.055016898
0003d0 60 ba 07 3d f9 d8 83 bd 8f 51 81 bc 2a 56 d5 bc
       0.033136725 -0.064378686 -0.01578596 -0.026042063
0003e0 c1 a2 90 bd 59 c5 37 bd fa 2e a3 ba f7 1a 70 3c
       -0.07062293 -0.04486594 -0.0012449913 0.014654866
0003f0 a6 9e 83 bd 03 0d 6e 3d 8a 01 98 3c b6 d6 7b 3d
       -0.06426744 0.058117878 0.018555421 0.06148406

sequential/conv2d_1/Conv2D f4 [32, 5, 5, 32]
000000 5e 71 25 3d 2f 3f a6 3c 94 10 db 3b 17 88 1e 3d
       0.04039132 0.0202938 0.006685326 0.038704004
000010 3d 4f 35 bd 76 69 09 bd 55 69 6c 3d 26 14 c7 bc
       -0.04426502 -0.03354784 0.05771764 -0.0243016
000020 59 9f 36 3c d6 ed 45 bc 9a 5d 3e bc 0b e6 73 bd
       0.01114639 -0.01208063 -0.011618996 -0.059545558
000030 99 07 8e bd a5 18 d7 3c f2 20 00 39 e0 43 f2 bd
       -0.06935043 0.026256869 0.00012219304 -0.118293524
000040 18 df ea bc 3e 61 47 3c 2d 30 9b 3d 14 90 cd bd
       -0.028670833 0.01216918 0.07577548 -0.10037246
000050 80 1c 7e 3d a2 89 04 3d 07 b1 b8 bd 79 6a be 3d
       0.0620389 0.03235782 -0.0901814 0.09297652
000060 60 b7 a8 bd 1c 52 69 3d 16 04 03 3d b1 a6 bd 3c
       -0.08238101 0.05696307 0.03198632 0.023150774
000070 c9 bc 85 bc 62 af 5e bd ea ff 86 3d 18 2a 6e bd
       -0.016325371 -0.054366477 0.065917805 -0.058145612
000080 9e 3b 0f bd 1e 10 5d bd b3 54 9b bc 08 6b 1d 3d
       -0.034968965 -0.05397045 -0.018961286 0.03843215
000090 54 79 aa 3c 5f 3b a2 bc 89 91 8d 3d b9 eb 0a bd
       0.020809807 -0.019803701 0.06912524 -0.03391621
0000a0 26 1c 53 bd 61 43 76 bc de 1c 42 bd 62 89 72 bd
       -0.051540516 -0.015030713 -0.04739081 -0.05921305
0000b0 7a 1e 10 bd 3b 7e de bd fc 8a 54 bc e5 e3 66 bc
       -0.035185315 -0.1086392 -0.01297259 -0.01409242
0000c0 19 2a f3 bd 4c 77 83 bc d9 1a f1 3d 13 2a 8a bd
       -0.11873264 -0.016048096 0.11772699 -0.06746306
0000d0 d0 cb 84 3c 3e 4f 1d 3c 51 5f bc bd bc 86 8d bc
       0.016210467 0.009601412 -0.09197868 -0.01727616
0000e0 cb 0a f6 3c 29 dd 66 3d 8f e8 61 3c d0 6d 1b bd
       0.030034443 0.05636326 0.013788356 -0.037946522
0000f0 12 90 c8 3b a5 b5 4f bd 43 31 a7 3b c4 d5 e4 3c
       0.00612069 -0.05071034 0.005102308 0.027933963
000100 ca 18 65 3b 74 87 d0 bd a9 b4 b9 3b e1 52 87 bb
       0.0034957402 -0.10182086 0.0056672883 -0.004129753
000110 d4 8b aa 3c 46 47 0e 3e b9 b1 01 3d 69 4c b8 bd
       0.020818628 0.13894376 0.03166363 -0.08998949
000120 5f 08 18 3c 04 2d 20 3d fa c9 94 3c 65 9b 19 bc
       0.00927934 0.03910543 0.018162716 -0.009375428
000130 42 90 07 bc af 29 15 3d 5b 31 f0 bc 6b 26 a2 bd
       -0.00827414 0.036416706 -0.02932041 -0.07917484
000140 4a 8d 99 bd 1b 64 25 3d 99 14 87 3c 3a 44 c8 3d
       -0.07497652 0.04037867 0.016489314 0.09778638
000150 5a 57 fb 3c 8e 34 a5 bd 67 3d f1 bc b6 ab 24 3d
       0.0306813 -0.08066665 -0.029448224 0.04020282
000160 48 22 87 3c 70 d3 d8 3c 6a 6e ae 3d 76 76 10 bd
       0.016495839 0.026468009 0.085171536 -0.035269223
000170 c0 7e 0d bd 2e e1 47 3d dc 16 04 bc fe dc e8 3a
       -0.034544706 0.048798732 -0.008062091 0.0017766056
000180 21 d3 9e 3c ff 21 af bd 8a bd 5b 3c 12 75 55 ba
       0.019387783 -0.08551406 0.013411889 -0.000814275
000190 a3 7d 08 bc 7d 35 31 3d 53 65 33 bc b6 99 03 3d
       -0.008330735 0.0432639 -0.010949451 0.032129012
0001a0 8a 3a a0 3c 8b 4a 59 3d 03 f5 71 bd 1f 87 07 3d
       0.019559164 0.053049605 -0.059071552 0.033087846
0001b0 76 70 ab bd 83 35 ec 3d d7 32 32 bd 07 fe 90 3d
       -0.083710596 0.11533644 -0.043505516 0.07079702
0001c0 6c 3b 1e bd b9 b9 21 be db 38 1c bd 82 b1 c3 bd
       -0.038630888 -0.15793504 -0.03814016 -0.09555341
0001d0 86 f7 60 bd 8d 80 35 3d 6b 9a d5 bd 2c e6 61 3d
       -0.054923557 0.04431205 -0.104298435 0.05515115
0001e0 b7 4a 45 3b 74 2e 1b bc 55 9a 0a 3d f6 56 42 3c
       0.0030104348 -0.0094715245 0.03383859 0.011861553
0001f0 08 ce c2 3b 3f ec 2d bd 2c 16 38 bd db 7e 19 bc
       0.005944971 -0.04246163 -0.04494302 -0.009368624
000200 cf ac 28 bc af 8d 59 3d 0a 6c a6 3c cc 81 25 bc
       -0.010295107 0.053113636 0.020315189 -0.010101747
000210 cb e2 37 be f2 fe a3 bd dd 2a 65 bc 40 86 10 3d
       -0.17957608 -0.08007611 -0.01398727 0.03528428
000220 76 8e 4e bc 7d bc b3 bc 0d b1 09 bb ae 7b 6e bd
       -0.0126072075 -0.021940464 -0.0021010072 -0.05822342
000230 5b 6c 67 bd 9b 2c 07 bd b2 b5 7f 3c bc cc 38 3d
       -0.05649982 -0.033001523 0.015607284 0.045117125
000240 57 63 0e 3d 1f 66 91 bd b1 06 d1 bd 01 08 dd bd
       0.034762707 -0.07099556 -0.102063544 -0.10792542
000250 fa 7b 82 bd fa db 8d bd 70 56 d0 3c df 86 c8 3c
       -0.06371303 -0.06926723 0.025431842 0.024478374
000260 3c e4 a1 ba 34 c6 39 3c 80 15 e1 bd d2 a6 fe 3a
       -0.0012351344 0.011338759 -0.10990429 0.0019428378
000270 74 83 e8 bb 69 c9 c2 bc 34 a4 f9 bd 99 7c 56 bd
       -0.0070957486 -0.02377768 -0.121895224 -0.05236492
000280 c6 4a 81 3c 4c fe 30 bc 3d 07 ba bb 81 22 04 bd
       0.015782725 -0.010802817 -0.0056771324 -0.032259468
000290 2b a4 a3 bc e8 42 86 bd 08 fe 03 bd d6 7c 44 bd
       -0.019975742 -0.0655573 -0.032224685 -0.047970615
0002a0 c1 12 7c bd 70 82 63 bd d4 16 26 3d 28 a1 25 3d
       -0.061541323 -0.055544317 0.040549114 0.040436894
0002b0 e0 60 6a bd de 6b 3b 3b c5 93 46 bd 2c 43 0d 3c
       -0.057221293 0.002859823 -0.048480768 0.008621972
0002c0 86 7f 24 3d 6b a8 e2 bc df f4 a8 bd 5c 80 1a bd
       0.04016068 -0.027668199 -0.082498305 -0.03772007
0002d0 48 3f 23 bd 72 c0 83 bc b3 d3 dd bc 4d ff 00 3d
       -0.03985527 -0.016082976 -0.027078485 0.031493474
0002e0 79 de 11 3c 89 fd 5a 3d 7d af fb 3c 2c 64 62 bd
       0.008903139 0.053464446 0.030723328 -0.055271313
0002f0 85 79 15 3d 57 37 8a bd 5e 69 ca ba 96 a5 54 3c
       0.036492843 -0.067488365 -0.0015442779 0.012978932
000300 45 77 56 bd d1 1e ee bc 53 38 e5 bc 85 4f 4a bd
       -0.052359838 -0.029067429 -0.027980959 -0.049392242
000310 2e 18 21 3d 19 48 91 3c c5 55 09 3d f5 5c 80 bc
       0.0393297 0.017734574 0.03352906 -0.015669325
000320 d9 5a 09 3d 8f 80 39 3d 80 8f 07 bd 8c 2e 1c 3c
       0.033533905 0.04528862 -0.033095837 0.009532582
000330 65 49 6f bd 11 ee 7c bd e8 b6 b2 3c ee 46 a0 bc
       -0.058419604 -0.061750475 0.021815732 -0.019565072
000340 10 1c bd 3c 23 ef d2 3c c8 71 80 bc 5a 57 6d bd
       0.02308467 0.025748795 -0.015679255 -0.057944633
000350 97 ae eb 3c 99 66 ee bb 36 46 d6 bb 18 79 c9 bc
       0.028769774 -0.007275414 -0.0065391315 -0.024593875
000360 5e 60 e1 3c fb 93 94 bd 4d 5b 40 bd 0d fe 38 bd
       0.027511772 -0.072547875 -0.04696207 -0.045164157
000370 38 2f ce bc 20 6a 69 bb fe 34 c8 bc d0 88 3e bd
       -0.025169 -0.0035616234 -0.024439331 -0.046517193
000380 b0 a8 75 3c c6 57 97 bd 87 12 9c 3b ba d1 31 bd
       0.0149938315 -0.07389788 0.004762951 -0.0434129
000390 01 00 34 bd 0a dc 71 bd 3c 46 45 3c 5f 28 27 bd
       -0.043945316 -0.059047736 0.012040671 -0.040809985
0003a0 c1 a8 16 3c af 5c 39 3d 57 a0 a2 bb 6c 02 52 3c
       0.0091955075 0.045254406 -0.0049629617 0.01281796
0003b0 0f 3f 20 bd eb 61 5a bd d7 92 b4 bc e8 d1 46 bc
       -0.039122637 -0.053316038 -0.022042675 -0.0121350065
0003c0 ca 18 46 bd bb e6 ff b9 65 db 75 bd f7 be 31 3e
       -0.048363484 -0.00048809298 -0.060023684 0.17358004
0003d0 8a 1e 91 bb 92 eb 2f bd f1 82 da bd 55 22 87 bb
       -0.0044286894 -0.042949267 -0.10669506 -0.0041239657
0003e0 a2 a2 38 bd a7 5e 6b bd 66 3b 6a bd be 65 80 bc
       -0.045076974 -0.057463314 -0.057185553 -0.015673514
0003f0 b9 de b4 3b ed 3e b7 bc 7f 60 19 3c 9b c4 45 bd
       0.0055197147 -0.022368873 0.009361385 -0.0482832

sequential/conv2d_2/Conv2D f4 [64, 3, 3, 32]
000000 15 ae 5e 3d d0 db 4a 3b 6b 7d b2 bd fc 71 1e 3e
       0.054365236 0.0030953772 -0.08715328 0.15473169
000010 c3 26 44 ba 44 e7 ba bc 94 64 5c bd aa f0 3b be
       -0.00074825826 -0.022815354 -0.053806856 -0.18353525
000020 22 0f c7 3c 0c 99 9c bd f3 6e e0 bd 43 8d e8 3d
       0.024299208 -0.07646379 -0.10958662 0.113550685
000030 ad bb 31 be 5b 1f 06 bc d1 69 53 bd 8a f3 60 be
       -0.17356749 -0.008186187 -0.051614586 -0.21967903
000040 73 17 ce bd 42 6e de 3c 23 5b 99 3d ce 22 39 be
       -0.10063066 0.027152184 0.07488086 -0.18079683
000050 3f 4e c9 bd 04 6d 92 3d 3e a0 94 3c f3 a3 4e bc
       -0.098293774 0.07149699 0.018142816 -0.012612331
000060 56 8f 31 3e a5 5f ab bd c5 9a 43 be 0e 97 63 3d
       0.17339835 -0.08367852 -0.19102009 0.05556398
000070 b5 fe 1f 3c 92 46 45 be ca 24 12 3e 9e 58 74 3d
       0.009765317 -0.19265202 0.14271846 0.059654824
000080 38 6f da bd d0 76 c4 bd 2c 90 f6 3b 93 53 21 3d
       -0.106657445 -0.09592974 0.007524511 0.039386343
000090 ac 24 0b 3d c7 2d 18 3c 6e 64 43 bd 02 e2 26 bd
       0.03397052 0.009288258 -0.0477032 -0.04074288
0000a0 04 4b 81 be bd 0b 58 3d d4 4f 90 bd e4 08 3f bd
       -0.25252545 0.05274557 -0.07046476 -0.046639338
0000b0 be 46 d5 bd 92 24 63 3d f9 7c e1 bc 7a f4 1b be
       -0.104138836 0.055454798 -0.027525412 -0.15229979
0000c0 4c 1c c4 bd de b4 7f 3c 31 e4 e3 3d 5a 33 b1 bc
       -0.0957571 0.015607087 0.111275084 -0.021630932
0000d0 08 dc 36 3c 5e 3a cf 3d 0c ab cd 3c 4b ba 90 bd
       0.011160858 0.101185545 0.025105976 -0.070667826
0000e0 b4 d0 c6 bd 8d d3 44 bd 14 d2 11 be b4 d4 59 3d
       -0.09707776 -0.048053313 -0.14240295 0.053181365
0000f0 a9 05 cc bd bf 3c f7 bd a9 b7 b0 3d 72 b9 55 bc
       -0.09962017 -0.12072133 0.086287804 -0.013044702
000100 6b 50 cb 3d 86 07 03 be ae 84 14 be 8a 4c 9a bd
       0.09927448 -0.12795839 -0.14503738 -0.0753413
000110 c6 dc 18 3d 9d 0e 74 bd 12 b5 cc bd 8e 3f 0e bd
       0.03731992 -0.05958425 -0.09995474 -0.03472858
000120 fc e4 c9 bd c2 c3 1f 3d 0d b2 eb bc 97 9f 05 3d
       -0.098581284 0.03900505 -0.028771425 0.0326229
000130 a2 d4 3d 3d 6a 8d 35 3c 20 fc 5d 3d 98 2e 8f be
       0.04634536 0.011081079 0.054195523 -0.27965236
000140 4d e9 d2 bd 82 24 3f bd 56 5d 0b 3e fe a8 db 3b
       -0.10298405 -0.046665676 0.13609824 0.006703495
000150 41 ff 36 3d 89 b0 05 bc 1e 45 66 bb 38 14 cb bd
       0.044677023 -0.008159765 -0.0035136412 -0.09915966
000160 c3 60 f4 bb 38 d8 87 bd b2 b3 93 bd a4 f0 d9 bd
       -0.007457824 -0.06633037 -0.072120085 -0.10641602
000170 cb 33 a4 bb 48 a5 f5 bd 42 0e 54 bd 71 b5 4b 3d
       -0.005011057 -0.119944155 -0.05177141 0.049733583
000180 c1 62 8c 3a 2b 4d eb 3d bd 63 7b 3c 34 41 0d 3d
       0.0010710583 0.11489328 0.015343604 0.03448601
000190 19 a9 6b bc aa 3b 9b bd 27 d1 2f be 21 e5 85 be
       -0.014383578 -0.075797394 -0.17169629 -0.26151374
0001a0 41 f9 82 3d 65 c7 83 bd d4 b4 04 be 3f 30 64 be
       0.06395198 -0.06434516 -0.12959605 -0.2228403
0001b0 9b cf dc bb 34 f6 e5 bd 9f c6 f1 bc 14 0d dd bd
       -0.0067386157 -0.112286 -0.029513655 -0.1079351
0001c0 d7 d1 f2 3c f5 c0 ed 3c c2 be 93 3d 9e ec 12 3c
       0.029641075 0.029022673 0.072141185 0.008967547
0001d0 45 72 d3 bd 1a b5 3b be d9 2e 17 3c 86 9a 86 3d
       -0.103245296 -0.18330804 0.009227478 0.06572442
0001e0 db 40 53 bd 88 3c 9b bd f5 1f 3e 3d ba 1a 2e bc
       -0.051575523 -0.07579905 0.046417195 -0.010626489
0001f0 09 76 2d bd b6 bb 27 3d 58 f9 b6 3b e0 2a ae 3d
       -0.042348895 0.0409505 0.0055839233 0.085042715
000200 c1 4a 04 bd 40 00 03 3e e5 9a 57 bd 8a 91 15 bd
       -0.032297853 0.12793064 -0.052637953 -0.03651575
000210 06 3b e0 3d ed ff 70 bd c4 64 a8 be 02 3b 19 be
       0.10948758 -0.05883782 -0.32889378 -0.14963916
000220 b0 7b 24 bd b6 61 ea 3d 68 d3 55 bd 83 57 8a bd
       -0.04015702 0.11444418 -0.052203566 -0.06754973
000230 aa ee 0f 3d eb a9 25 3c ef 72 56 bd 06 04 35 be
       0.035139717 0.010111312 -0.052355703 -0.17677316
000240 9f 58 9e bc 91 6a 26 bd da 5c c8 bd 3f 30 26 be
       -0.019329367 -0.040628973 -0.09783335 -0.16229342
000250 d0 66 ce bd 2d b4 42 bc 2d 10 09 bd 79 c9 47 be
       -0.10078204 -0.011883778 -0.033462692 -0.1951045
000260 14 33 4c 3e a3 3a ca 3d 7f a3 11 bd 58 3a 3e bd
       0.1994136 0.09874465 -0.035556313 -0.04644236
000270 f6 55 a4 bd f4 02 fe 3c 35 43 1e bc d6 ae 0c 3e
       -0.08024208 0.031007268 -0.009659578 0.1373857
000280 4f 94 52 3d 9a fe 89 3d 63 c3 4c bd d7 98 6d bd
       0.05141097 0.067380145 -0.049991023 -0.058007088
000290 bb 1c 52 3d 05 51 e0 bd 3e 74 8e bd d7 7b 80 be
       0.05129693 -0.10952953 -0.06955765 -0.25094482
0002a0 c2 5c c7 3d e9 9f fa 3d b8 1a 78 be 4d 75 3e be
       0.09734489 0.12237532 -0.24228942 -0.18599434
0002b0 91 6b 98 3d 2f 12 bf 3d 78 5c 9f 3d c1 a5 bb 3b
       0.07442392 0.0932964 0.07781309 0.0057265465
0002c0 91 58 3c 3e 32 65 e7 bd 90 bd 33 bc 65 df bf bd
       0.1839316 -0.11298598 -0.010970488 -0.09368781
0002d0 a6 39 b9 bd 40 e4 24 3d 5c 25 ec bc 53 21 4c 3d
       -0.09044199 0.04025674 -0.028826408 0.049836468
0002e0 ec f6 e0 3d f7 fe 3b be c1 78 d0 bd b7 36 82 bd
       0.109845966 -0.1835898 -0.10179282 -0.06358092
0002f0 6c ae 7e 3d fa ef d9 bb 0e 49 cd 3c 8b c0 55 3c
       0.06217806 -0.006650922 0.02505925 0.013046394
000300 88 a1 f0 bd 2a 9a 0f be 32 4e be bd 64 20 03 be
       -0.1174956 -0.14023653 -0.09292258 -0.12805325
000310 c9 7c 12 3c 9b 73 3b bd 77 31 b8 3d 83 1a de bc
       0.008940884 -0.045764547 0.0899381 -0.027112251
000320 dc fd 9b 3d 0f f1 d5 3d 94 77 af bc 4c 10 f8 b9
       0.07616779 0.10446369 -0.021419324 -0.00047314388
000330 d8 0b db 3b f6 ff 90 3c bd 31 81 3d 8e 0e 6f bd
       0.0066847615 0.017700177 0.06308315 -0.05836349
000340 50 1e de bd a3 78 e5 3d 75 73 e0 bd 8f 1f c3 3c
       -0.108456254 0.1120465 -0.10959522 0.02381876
000350 ce de 6b bd d0 f6 8a bd e0 33 52 3d 22 cf 0f 3d
       -0.05758553 -0.06785357 0.051319003 0.035109647
000360 4e a5 9c bd d9 b9 b9 bd 05 f3 ce 3d 55 43 a7 bd
       -0.07648717 -0.09068651 0.10104946 -0.081671394
000370 9f e3 2b be 5a 47 f3 bc 84 b6 2a bc 6f 66 a2 3c
       -0.1678605 -0.029697109 -0.010419492 0.019824235
000380 a5 f3 66 be bc cd c8 bd bc ad 38 bd 7a 19 41 be
       -0.2255388 -0.09804866 -0.04508756 -0.18857375
000390 f4 2c 96 bd 03 09 09 be 15 b5 1c bc ca 03 af 3d
       -0.07332793 -0.13382344 -0.009564658 0.085456446
0003a0 2c 5b 1e 3c 6b a7 56 3d a6 32 10 bd 81 30 38 3d
       0.009665292 0.052405756 -0.035204552 0.044968132
0003b0 59 52 48 bd 5b f3 2e 3d dc 85 ad 3d cd 46 96 3d
       -0.048906658 0.04271255 0.08472797 0.07337723
0003c0 15 3c 0f be 69 78 70 3d 5e 17 af bd f8 23 62 bc
       -0.13987763 0.058708582 -0.08549379 -0.013802521
0003d0 75 70 8d be 9c d7 22 be 2b 0e 2e bd ee de 9a bd
       -0.2762486 -0.15902561 -0.04249398 -0.07562052
0003e0 73 a7 3a 3d 2e 1c 88 bd ce a9 17 bd 3c 47 b3 bd
       0.04556985 -0.06646 -0.037027173 -0.08753821
0003f0 66 7d c2 bd 19 2e c3 3d 48 39 17 be f0 ef 19 3e
       -0.09496574 0.09530277 -0.14767945 0.15032935
